smark_picking_saffron/inpainting_phase/source_multitask/ckpt/elements/linear_to_384_pretrained.pth (torch, 7870 bytes, 2 tensors)

weight f4 [384, 3]
0	0x3df5b637	0.11997645
1	0xbdf38ddd	-0.11892293
2	0x3c8a7e93	0.016906058
3	0xbe019408	-0.12654126
4	0x3dd9659e	0.10615085
5	0xbc142fbf	-0.009044587
6	0xbdbe0f47	-0.09280258
7	0x3da344f5	0.07972137
8	0xbc41b84d	-0.011823726
9	0x3e17e4ad	0.14833327
10	0xbe0d2e87	-0.1378728
11	0x3c5b6ceb	0.013392667
12	0x3d86e905	0.06587414
13	0xbd68347e	-0.056690685
14	0x3a4b9e7e	0.00077674526
15	0x3dfc3a3f	0.12315797
16	0xbdf35448	-0.1188131
17	0x3c853e84	0.016265161
18	0xbdb83dcc	-0.08996162
19	0x3dc7de46	0.09759192
20	0xbc712d46	-0.014720267
21	0xbdd4a03e	-0.10382126
22	0x3db7363b	0.089458905
23	0xbc1a831f	-0.009430676
24	0x3d400cba	0.046887137
25	0xbd15cc29	-0.036571655
26	0x3b1087ea	0.0022053667
27	0xbd96f29c	-0.07370493
28	0x3d777a4a	0.06041936
29	0xbbc4c923	-0.0060054227
30	0x3db724d0	0.08942568
31	0xbda327e0	-0.0796659
32	0x3bed081c	0.0072336327
33	0xbe423d41	-0.18968679
34	0x3e27639f	0.16346596
35	0xbc90ab20	-0.017659724
36	0x3dd326ae	0.10310112
37	0xbdbfeac2	-0.093709484
38	0x3c528f01	0.012851478
39	0xbe083410	-0.1330111
40	0x3df7aeec	0.120939106
41	0xbc1d5ed6	-0.00960513
42	0x3cde718a	0.027153749
43	0xbc4a4049	-0.012344428
44	0xbb56cbb6	-0.003277523
45	0x3d973bd4	0.07384458
46	0xbda6dba1	-0.0814736
47	0x3c17cb05	0.009264712
48	0xbe156b6c	-0.1459176
49	0x3e08749a	0.1332573
50	0xbc306d9a	-0.010768319
51	0xbde9c70f	-0.114149205
52	0x3dcfdfa9	0.10150082
53	0xbc2070e8	-0.009792544
54	0xbd238f86	-0.039931796
55	0x3d33edbc	0.043927893
56	0xbbbb5832	-0.005717301
57	0x3dadd528	0.08487922
58	0xbda59c16	-0.08086412
59	0x3c648dc0	0.013949811
60	0x3e0947bd	0.13406272
61	0xbe00dc29	-0.12583984
62	0x3c4ef270	0.012631044
63	0x3d929556	0.0715739
64	0xbd77e732	-0.06052322
65	0x3c02c904	0.007982496
66	0x3d25e545	0.04050185
67	0xbd22f718	-0.03978643
68	0x3bea7bda	0.0071558775
69	0x3df0404e	0.11731015
70	0xbdddd2c4	-0.10831216
71	0x3c88de7e	0.016707655
72	0x3d247f2e	0.04016035
73	0xbccec40f	-0.025239972
74	0xbaeff11c	-0.0018306109
75	0xbd9de74d	-0.07710133
76	0x3d93b587	0.07212358
77	0xbc554c0b	-0.013018618
78	0xbe10c1eb	-0.14136474
79	0x3e000a6c	0.12503976
80	0xbc4dc738	-0.0125597045
81	0x3b9d2939	0.004796174
82	0xb9e3b9b0	-0.00043435162
83	0xbb8c990b	-0.004290705
84	0xbbc205aa	-0.0059210854
85	0x3bf43587	0.00745267
86	0x3ab551d5	0.0013833592
87	0xbda74306	-0.081670806
88	0x3d9f4754	0.07777277
89	0xbb9c03a5	-0.0047611766
90	0xbc7772cf	-0.015103056
91	0x3bfa484d	0.0076380135
92	0x3ae2ebc9	0.0017312701
93	0x3e16e0db	0.14734213
94	0xbe22753a	-0.15865031
95	0x3cdb14aa	0.026743252
96	0x3d15595b	0.03646217
97	0xbd15ca14	-0.03656967
98	0x3c6824e8	0.014168955
99	0xbcd39537	-0.025827987
100	0x3d01c640	0.031683207
101	0xbbfefba9	-0.007781465
102	0x3e3a2ce1	0.18181182
103	0xbe193d33	-0.14964752
104	0x3c667c3c	0.014067706
105	0xbd703b99	-0.058650587
106	0x3d6705ec	0.056402132
107	0xbbfa35b2	-0.0076357955
108	0xbdca7320	-0.098852396
109	0x3dc0d23b	0.09415098
110	0xbc5c7110	-0.013454691
111	0x3ded101e	0.1157534
112	0xbde6bf9c	-0.11267015
113	0x3c37d52e	0.01122026
114	0x3de4423f	0.11145448
115	0xbdec55c7	-0.11539798
116	0x3c8a5a91	0.016888889
117	0x3da16171	0.078799136
118	0xbd98fcb2	-0.07470073
119	0x3c55abdd	0.013041464
120	0x3dc1d35d	0.094641425
121	0xbda3c007	-0.07995611
122	0x3bfc82b5	0.007706011
123	0xbdc477d9	-0.095931716
124	0x3dbbdd8c	0.09173116
125	0xbc00021e	-0.007813005
126	0x3d30f1a0	0.04319918
127	0xbd1c82a4	-0.038210526
128	0x3be0e383	0.006863059
129	0xbc0716b0	-0.008245155
130	0x3c160ca2	0.009158285
131	0xbb87bbcb	-0.0041422597
132	0xbd53d91f	-0.051720735
133	0x3d2e9739	0.042624686
134	0xbbc790c1	-0.006090254
135	0xbbb28388	-0.0054478087
136	0x3c09a8d0	0.008402064
137	0xbaea801e	-0.0017890965
138	0xbe586e20	-0.2113576
139	0x3e47cd18	0.19511831
140	0xbcd482ba	-0.025941242
141	0xbcc5eed9	-0.024161743
142	0x3ce5d058	0.028053448
143	0xbba62975	-0.00507086
144	0x3da9c66c	0.08289799
145	0xbdbd48ea	-0.09242423
146	0x3c832eb0	0.016013473
147	0xbc84b829	-0.016201096
148	0x3c0fa975	0.008768429
149	0x39d5b237	0.00040759306
150	0x3c9c7eda	0.019103456
151	0xbcaefe71	-0.021361561
152	0x3c172b04	0.009226564
153	0xbcb0d481	-0.021585705
154	0x3c82040e	0.015871074
155	0x3ade4f26	0.0016960844
156	0xbea90df0	-0.33018446
157	0x3e996496	0.29959553
158	0xbd09c40f	-0.03363424
159	0x3db4af14	0.08822456
160	0xbd9416ef	-0.07230937
161	0x3c0537f7	0.008131019
162	0x3dbe41c4	0.092898875
163	0xbdabf4aa	-0.08396275
164	0x3c1af44e	0.009457661
165	0xbe1021a0	-0.14075327
166	0x3e0d65f5	0.13808425
167	0xbcb725b0	-0.022356838
168	0xbe134e45	-0.14385326
169	0x3e145277	0.14484583
170	0xbca20a74	-0.019780375
171	0xbc83254f	-0.016009001
172	0x3d0fe8ef	0.035134252
173	0xbc236b39	-0.009974294
174	0x3b16f6df	0.002303533
175	0xbca32697	-0.019915862
176	0x3bf7ad7f	0.007558524
177	0x3e121ad1	0.14268042
178	0xbe0fd063	-0.14044337
179	0x3caf6374	0.021409728
180	0x3d794fd4	0.060867146
181	0xbd852a06	-0.06502156
182	0x3bdd9814	0.006762514
183	0xbe02e4e4	-0.12782627
184	0x3dde9a0e	0.10869227
185	0xbc414839	-0.011797004
186	0xbd12f887	-0.035881545
187	0x3d3af2e0	0.04564178
188	0xbbeee399	-0.0072903153
189	0xbd8cdf33	-0.06878509
190	0x3d6d4a65	0.057932276
191	0xbbfe072e	-0.0077523207
192	0xbd94eeb6	-0.07272093
193	0x3d9a235c	0.075262755
194	0xbc16f6ed	-0.009214145
195	0xbd6ccdc7	-0.057813432
196	0x3d3c5bad	0.045985866
197	0xb92d3f37	-0.00016522115
198	0xbe8eff3e	-0.2792911
199	0x3e841f4a	0.25805122
200	0xbcea6578	-0.028612837
201	0xbdae1c5b	-0.08501502
202	0x3d9aff88	0.0756827
203	0xbc0156be	-0.007894216
204	0x3ddcc3c9	0.107795306
205	0xbdcdc492	-0.100472584
206	0x3c86a79f	0.01643735
207	0xbcfc401e	-0.030792292
208	0x3d121d04	0.035672203
209	0xbbfd4305	-0.0077289366
210	0x3e057902	0.13034442
211	0xbe016a9f	-0.12638329
212	0x3c658b98	0.0140103325
213	0x3deb3c50	0.11486113
214	0xbde10520	-0.10987306
215	0x3c3e61c0	0.011619985
216	0x3d8c847d	0.06861208
217	0xbd9c80d2	-0.07641758
218	0x3c34b5df	0.01102969
219	0x3df0b1d0	0.11752665
220	0xbdd666e9	-0.10468847
221	0x3c5ccec4	0.013477031
222	0xbe25c9fc	-0.16190332
223	0x3e187fd3	0.14892511
224	0xbc9fee57	-0.019522829
225	0xbc405719	-0.011739516
226	0x3ca4354b	0.020044943
227	0xbb9e7d81	-0.0048367386
228	0xbd65523d	-0.05598663
229	0x3d44b90b	0.048028033
230	0xbb1c9815	-0.002389436
231	0x3c819f5a	0.015823055
232	0xbbb79700	-0.0056027174
233	0xba6ffdbf	-0.00091549376
234	0xbd35deb0	-0.044401824
235	0x3d29bd9d	0.041440595
236	0xbc0ac3de	-0.00846955
237	0xbc8458c0	-0.0161556
238	0x3c82b580	0.015955687
239	0xbad14e01	-0.0015968682
240	0xbe1921d7	-0.14954315
241	0x3e094106	0.1340371
242	0xbc4d5922	-0.012533458
243	0xbd237547	-0.039906766
244	0x3ce62e19	0.028098153
245	0xb9822d20	-0.00024829153
246	0xbd6e006f	-0.058105882
247	0x3d57ba63	0.052667987
248	0xbbc6f46e	-0.0060716188
249	0x3d28a93b	0.041177016
250	0xbd0ab333	-0.033862304
251	0x3b2c7fe0	0.0026321337
252	0x3d304362	0.04303301
253	0xbd224e52	-0.039625473
254	0x3bee3016	0.007268916
255	0x3e221753	0.1582921

bias f4 [384]
0	0x3f01c1e1	0.5068646
1	0xbf0b4fa3	-0.5441839
2	0xbed6acbe	-0.41928667
3	0x3f11ecd7	0.57002014
4	0x3e90c083	0.28271875
5	0x3f0b7f38	0.54490995
6	0xbebba5da	-0.36649972
7	0xbefe55e1	-0.49674895
8	0x3e684f12	0.22686413
9	0xbe8bde00	-0.2731781
10	0x3ec354f7	0.3815076
11	0xbf499a2e	-0.78750885
12	0x3ec15826	0.37762564
13	0xbf0f362e	-0.55942047
14	0x3e1fa598	0.15590513
15	0x3e98c3c9	0.29836872
16	0xbf247dcd	-0.64254457
17	0xbed97f78	-0.42480063
18	0xbe44de51	-0.19225432
19	0x3e9bab1c	0.30403984
20	0x3f0b62e0	0.54447746
21	0x3e91eeac	0.28502405
22	0x3e774d26	0.24150524
23	0x3eee6d45	0.4656774
24	0x3e3edaff	0.18638228
25	0xbe8e6ef3	-0.27819023
26	0xbf13ce91	-0.5773707
27	0xbcc2ac84	-0.023763902
28	0xbccc9d28	-0.024977282
29	0xbea7a96a	-0.3274644
30	0xbdebb1b7	-0.11508506
31	0x3f1632c1	0.58671194
32	0x3e2a8cc0	0.16655254
33	0xbe266181	-0.16248132
34	0x3f50981d	0.81482106
35	0xbe792a34	-0.24332505
36	0xbee53b6c	-0.44771898
37	0x3ee566d8	0.44805026
38	0x3ee13845	0.43988243
39	0x3ec2c95c	0.3804425
40	0x3ec1efff	0.37878415
41	0xbecd7afc	-0.40132892
42	0x3e3aca99	0.18241347
43	0xbca84417	-0.02054028
44	0xbe40336b	-0.18769614
45	0x3c6f5290	0.014607087
46	0xbf5de0b4	-0.86670995
47	0xbe3507ba	-0.17678729
48	0x3ec6472f	0.38726184
49	0xbe0129fa	-0.12613669
50	0x3d5a37a9	0.053275738
51	0xbdf5768a	-0.119855
52	0xbfadbf85	-1.3574072
53	0x3eca03d7	0.39456055
54	0x3eaa1111	0.33216146
55	0xbf1769a2	-0.5914556
56	0xbf1ae790	-0.60509586
57	0xbd596310	-0.05307299
58	0xbb92f40b	-0.0044846586
59	0x3f19f2d7	0.6013617
60	0x3e93763c	0.28801143
61	0xbef9d4c9	-0.48795155
62	0xbdff8272	-0.12476052
63	0xbe970c39	-0.29501513
64	0xbe860020	-0.2617197
65	0xbe5b85ae	-0.21437714
66	0xbf96f289	-1.1792766
67	0xbeb560e0	-0.35425472
68	0x3ed0978e	0.40740627
69	0xbdb8bfe3	-0.090209745
70	0x3f09e1bf	0.53860086
71	0x3f016313	0.505418
72	0x3e8981aa	0.26856738
73	0x3eeda761	0.46416762
74	0xbf229d89	-0.6352163
75	0xbc845cfd	-0.016157622
76	0xbe305a34	-0.1722191
77	0x3d710f2f	0.05885237
78	0xbe4ffecf	-0.20312046
79	0xbdc54b76	-0.09633534
80	0xbf145194	-0.5793698
81	0xbe55219e	-0.20813605
82	0xbe781927	-0.24228345
83	0x3e802fe6	0.25036544
84	0x3e1ec275	0.15503867
85	0x3f217577	0.6306986
86	0xbd2a80e8	-0.04162684
87	0x3e3efaef	0.18650411
88	0xbdb08de7	-0.08620816
89	0xbd1b541e	-0.037922017
90	0xbc3b8194	-0.011444468
91	0xbda0e683	-0.078564666
92	0x3c17938a	0.009251485
93	0xbe2d9d22	-0.16954473
94	0xbf1f35c2	-0.621914
95	0xbefbe7ac	-0.4920019
96	0x3d8c3cab	0.06847509
97	0xbe814477	-0.25247547
98	0xbe71cd11	-0.23613383
99	0x3e2e6f09	0.17034544
100	0x3db4d229	0.08829147
101	0xbe27179f	-0.16317604
102	0x3f510745	0.8165172
103	0x3df00fae	0.11721741
104	0xbde89b22	-0.11357714
105	0x3dc86fb0	0.09786928
106	0xbe9d8094	-0.3076216
107	0xbf1f24fc	-0.6216581
108	0xbf22bf82	-0.6357347
109	0xbe01c045	-0.12671001
110	0xbe60f6f6	-0.21969208
111	0xbf34a9c0	-0.7057152
112	0x3e9fabce	0.31185764
113	0xbf142f23	-0.57884425
114	0xbf3a2e7c	-0.7272718
115	0xbdad05a7	-0.08448344
116	0xbeeaa59c	-0.45829475
117	0xbeb318d2	-0.34979874
118	0xbd0cecb3	-0.03440542
119	0x3e5e473c	0.21706861
120	0xbe4af1ea	-0.19818845
121	0xbee6b037	-0.45056316
122	0x3e7b0c52	0.24516419
123	0xbed18573	-0.40922126
124	0xbe9b8385	-0.3037378
125	0xbe2ad8cf	-0.16684268
126	0xbf12dc74	-0.57367635
127	0x37b3b2d4	2.1421736e-05
128	0x3c5f1296	0.013615271
129	0xbec57638	-0.38566756
130	0x3f039757	0.514028
131	0x3ed202bb	0.41017708
132	0xbd11ad97	-0.03556594
133	0xbee7f93c	-0.45307338
134	0xbedb9216	-0.42884892
135	0x3bc6ae9b	0.006063295
136	0xbf5d383c	-0.8641393
137	0xbdb06299	-0.08612556
138	0xbd9b6498	-0.07587546
139	0x3e09bf0b	0.13451783
140	0xbcd47b6b	-0.025937757
141	0xbe5c480b	-0.21511857
142	0x3d9ce977	0.076617174
143	0xbf0524de	-0.5200938
144	0x3eb3dba7	0.3512852
145	0xbecc64fd	-0.39920798
146	0xbb42410c	-0.0029640822
147	0x3d43de38	0.047819346
148	0x3d1c80d4	0.038208798
149	0x3f385ac8	0.7201352
150	0xbee9c442	-0.45657545
151	0xbe08f901	-0.13376237
152	0xbebea911	-0.37238362
153	0xbf81abe1	-1.0130578
154	0x3dfeb507	0.12436872
155	0xbea12e59	-0.31480673
156	0xbec2c18b	-0.38038287
157	0x3e43290e	0.1905863
158	0x3f30e89e	0.69104946
159	0xbe945c25	-0.2897655
160	0x3f0b0676	0.54306734
161	0x3f451e16	0.7699903
162	0xbed951cf	-0.42445228
163	0xbe3b32ec	-0.18281144
164	0xbe89b468	-0.26895452
165	0xbf748522	-0.95515645
166	0xbd4c69d6	-0.04990562
167	0xba42a738	-0.000742543
168	0x3e837118	0.2567222
169	0x3ecd4c8a	0.40097457
170	0x3d7f8ff6	0.06239315
171	0x3f4a06e5	0.7891677
172	0x3de2e6d3	0.110791825
173	0x3dc1f872	0.09471215
174	0x3eaa0438	0.33206344
175	0x3da9e047	0.08294731
176	0x3f21ddf8	0.6322932
177	0x3e8bebc1	0.27328303
178	0xbe4db1d5	-0.20087369
179	0x3efffa05	0.49995437
180	0xbe17f508	-0.14839566
181	0x3e4c43b4	0.19947702
182	0xbec3c36b	-0.3823503
183	0xbdf36f18	-0.11886424
184	0x3c86e0cf	0.016464619
185	0xbe309ed7	-0.17248093
186	0xbe38ac45	-0.18034466
187	0x3f1221c7	0.5708279
188	0x3e587b0e	0.21140692
189	0x3dadbf6f	0.08483779
190	0xbeecb69b	-0.46233067
191	0xbf87c42e	-1.0606744
192	0x3efa236a	0.48855144
193	0x3f113fad	0.56737787
194	0xbf53483e	-0.8253211
195	0x3d1f36b7	0.03887054
196	0x3e8c6e16	0.2742774
197	0xbcaff25e	-0.021477874
198	0x3ce08f35	0.027412036
199	0x3c5447f5	0.012956609
200	0xbd747c8b	-0.059689086
201	0xbe32684c	-0.17422599
202	0x3ec586e3	0.38579473
203	0x3eecb4d6	0.46231717
204	0x3f084fc9	0.5324674
205	0x3eab484d	0.334536
206	0x3f0c3ca5	0.54780036
207	0x3d81054e	0.0629984
208	0x3e51fb01	0.20505907
209	0x3e44fbd9	0.19236697
210	0xbe76f238	-0.24115837
211	0x3f0bf9fb	0.54678315
212	0xbf336c55	-0.70087177
213	0xbe661b88	-0.2247144
214	0xbe0b7bc7	-0.13621436
215	0x3ee6451f	0.4497461
216	0xbe8a7130	-0.2703948
217	0xbe5e54b6	-0.21712002
218	0xbe2e60f8	-0.17029178
219	0xbd84ce60	-0.064846754
220	0x3eb220cb	0.34790644
221	0xbe89df7b	-0.26928315
222	0xbf04861a	-0.5176712
223	0x3a16c42a	0.00057512766
224	0xbe9c80f0	-0.30567122
225	0x3cbc4075	0.022979954
226	0x3eb58e1b	0.3545998
227	0x3eb986a7	0.36235544
228	0x3e1dafe7	0.15399133
229	0x3f8220bc	1.016624
230	0x3f0e86c4	0.55674386
231	0xbec0b963	-0.3764144
232	0x3dd7e013	0.10540786
233	0x3f30cb84	0.6906054
234	0x3f0e475f	0.55577654
235	0x3f6a5c1d	0.91546804
236	0x3f363c5d	0.7118586
237	0xbf633ff7	-0.8876948
238	0x3eb4f587	0.35343572
239	0xbe85c9f7	-0.2613065
240	0x3fa79ace	1.3094118
241	0x3f3604e4	0.7110121
242	0x3c9872c6	0.018609416
243	0x3ddc4c0f	0.107566945
244	0xbeb2be63	-0.3491088
245	0x3f4ac0a2	0.79200184
246	0xbf0b3cc3	-0.5438959
247	0xbf097067	-0.5368714
248	0xbf755fd7	-0.95849365
249	0x3f318ba9	0.6935373
250	0x3e6f2195	0.23352654
251	0xbf36abef	-0.713561
252	0xbe3e2667	-0.18569337
253	0x3e4317be	0.19052026
254	0x3e27422f	0.16333841
255	0xbf8158a5	-1.0105177
